…
4      4  We're thrilled to announce a powerful integrat...  thrilled announce powerful integration langcha...  positive
majority class before upsample: (909, 4)
minority class before upsample: (66, 4)
After upsampling
sentiment
positive    909
negative    909
Name: count, dtype: int64
(900,) (100,) (900,) (100,)
Vocabulary size=20896
Number of Documents=900
(900, 30) (100, 30)
Model: "sequential"
_________________________________________________________________
 Layer (type)                Output Shape              Param #   
=================================================================
 embedding (Embedding)       (None, 30, 300)           6269100   
                                                                 
 conv1d (Conv1D)             (None, 23, 64)            153664    
                                                                 
 max_pooling1d (MaxPooling1  (None, 11, 64)            0         
 D)                                                              
                                                                 
 dropout (Dropout)           (None, 11, 64)            0         
                                                                 
 dense (Dense)               (None, 11, 8)             520       
                                                                 
 dropout_1 (Dropout)         (None, 11, 8)             0         
                                                                 
 dense_1 (Dense)             (None, 11, 4)             36        
                                                                 
 dropout_2 (Dropout)         (None, 11, 4)             0         
                                                                 
 global_max_pooling1d (Glob  (None, 4)                 0         
 alMaxPooling1D)                                                 
                                                                 
 dense_2 (Dense)             (None, 1)                 5         
                                                                 
=================================================================
Total params: 6423325 (24.50 MB)
Trainable params: 6423325 (24.50 MB)
Non-trainable params: 0 (0.00 Byte)
_________________________________________________________________
Epoch 1/3
8/8 [==============================] - ETA: 0s - loss: 0.3349 - accuracy: 0.0678
…
