…
2 2 Open Source thrives through shared efforts. Wh... open source thrives shared efforts whether new... positive
3 3 In the age of burgeoning data complexity and h... age burgeoning data complexity high dimensiona... positive
4 4 We're thrilled to announce a powerful integrat... thrilled announce powerful integration langcha... positive
majority class before upsample: (909, 4)
minority class before upsample: (66, 4)
After upsampling
sentiment
positive 909
negative 909
Name: count, dtype: int64
(800,) (200,) (800,) (200,)
Vocabulary size=19029
Number of Documents=800
(800, 30) (200, 30)
Model: "sequential"

---

# Layer (type) Output Shape Param #

embedding (Embedding) (None, 30, 100) 1903000

dense (Dense) (None, 30, 3) 303

conv1d (Conv1D) (None, 16, 256) 11776

max_pooling1d (MaxPooling1 (None, 8, 256) 0  
 D)

dropout (Dropout) (None, 8, 256) 0

dense_1 (Dense) (None, 8, 16) 4112

dropout_1 (Dropout) (None, 8, 16) 0

dense_2 (Dense) (None, 8, 16) 272

dropout_2 (Dropout) (None, 8, 16) 0

global_max_pooling1d (Glob (None, 16) 0  
 alMaxPooling1D)

dense_3 (Dense) (None, 1) 17

=================================================================
Total params: 1919480 (7.32 MB)
Trainable params: 1919480 (7.32 MB)
Non-trainable params: 0 (0.00 Byte)

---

Epoch 1/10
4/4 [==============================] - ETA: 0s - loss: 0.7475 - accuracy: 0.0213
Epoch 1: val_accuracy improved from -inf to 0.00500, saving model to ./best_model/best_model_cnn1d.h5
4/4 [==============================] - 2s 226ms/step - loss: 0.7475 - accuracy: 0.0213 - val_loss: 0.7300 - val_accuracy: 0.0050
…
